data/iris/rbm_weights.npz (npz, 1612 bytes, 3 tensors)

a f8 [15]
-1.600063057970904 0.9993400699451678 -2.4217342099547614 -1.5475261826370572 -0.19229950590787442 -0.6723302844958529 -0.5249442545534818 -1.0287031004086167
-1.3577519527477433 -2.121727084875849 0.5022749551848265 -0.42350222082834 -1.5913146070936686 1.3190554960843972 -2.225711574952329
00000000: 545d 98b8 db99 f9bf 2ee6 bf06 98fa ef3f
00000010: 7be1 7a2f b65f 03c0 0114 82d0 aac2 f8bf
00000020: cea4 742c 459d c8bf 5da4 00cd ba83 e5bf
00000030: 3ff8 b0e4 57cc e0bf f0c7 d861 9175 f0bf
00000040: 6c1b 921c 5ab9 f5bf 2da2 c40c 4cf9 00c0
00000050: 5acc 43ed a212 e03f 066e 0f0f a91a dbbf
00000060: 91d4 314e 0676 f9bf 28aa 94ef d91a f53f
00000070: c2fd c5de 41ce 01c0

b f8 [6]
-0.14217513002659915 -0.0036275916269483035 0.3330997229629511 -1.0887068798518553 -1.5883371072203774 -0.3708369784521604
00000000: be67 e26e cb32 c2bf 6ce1 d46c 9cb7 6dbf
00000010: a8ae 1b80 8151 d53f 7f4d bee7 576b f1bf
00000020: 678e a82b d469 f9bf f95d a605 cbbb d7bf

J f8 [15, 6]
-0.8878728238085551 -1.8601495183143064 2.123397925072178 -2.216423003756556 -0.6468680489339141 3.5851919730079547 -1.8240003409575403 1.6350407017498378
-1.6662329962037012 -3.0100432673946322 1.3964939370141702 -3.2392952970257904 2.7597599124770675 -0.43711193367350887 -1.4920400085690038 3.351026919219778
-2.7837200412066663 -1.2107710544521253 -0.7486831449859046 -0.3018548650143095 1.7951764015196832 -0.94601690324012 0.598802691614691 2.221795537710102
-0.5342623424966835 1.8561598366769454 -0.5672960803728989 -1.359377351566041 -2.165858789507557 -1.3910153313741085 1.4031721811801912 -1.8250924649648903
-2.312013872873628 0.8684923249926908 1.7566533603082168 -1.8512381648945901 -1.3605404206385259 1.9600399185396422 -1.1671223964088835 1.3164270209152993
-0.8951072107870575 -1.6359001838818723 2.3614461683464336 -1.0517944402161257 -0.40298087716084086 -1.637611290230514 1.46999458827177 0.09689768387073455
-1.3125337194730131 -1.623833338625006 1.0818578570573507 1.074638186743776 -0.23162035731314967 1.1337554828443335 -0.20702606164682982 -1.6828544858790315
3.7463270890451272 -2.1240934793539568 -0.29969709724135973 2.1813058738647095 -2.744985767773449 1.986662652195271 -2.380284352523058 -1.4511103293516947
0.842614280267329 -2.0660818145399107 2.1477138644532316 -1.9724118756785323 -2.0586285073553694 2.0654377299793967 -1.4159653855879772 -2.139544144428871
-1.1333499421676652 -2.486552855887004 1.9501626276644037 -1.89135267963072 -0.043685471171002896 3.7686888124302884 -2.2361569094994724 0.9727326702220924
-2.5346358945789325 -2.1952364554832156 0.9658934605164289 -2.709369919559395 0.8322264901426232 -0.7512007829570975 -1.2502962309231354 4.1882160756992866
-0.9538947811779864 -1.185242542455727
00000000: 2e7a a844 7469 ecbf 1648 2d24 2cc3 fdbf
00000010: 55a2 240d b8fc 0040 57e4 d9fb 3bbb 01c0
00000020: 9ff3 5f9f 24b3 e4bf 679b 0f21 79ae 0c40
00000030: 44e3 44fb 1a2f fdbf a44f 5a70 2029 fa3f
00000040: 3660 23ee e3a8 fabf 180a 8890 9114 08c0
00000050: 3e9c c806 0a58 f63f bf7f 16a7 13ea 09c0
00000060: e534 4701 fd13 0640 2e6b f454 a4f9 dbbf
00000070: f509 1258 65df f7bf 4384 9033 e7ce 0a40
00000080: 869e 5103 0f45 06c0 860b 1d78 515f f3bf
00000090: 06fd d85a 36f5 e7bf 3fff 5711 9751 d3bf
000000a0: 813f f1e3 0ab9 fc3f f624 9c3d c545 eebf
000000b0: 69bd 2743 6429 e33f b3e8 26bd 3cc6 0140
000000c0: 503e 1057 ad18 e1bf a4d1 2aa8 d4b2 fd3f
000000d0: 0538 0b1c 4a27 e2bf 4a63 3e77 02c0 f5bf
000000e0: 4a83 e5c5 ad53 01c0 4ac8 c74a 9941 f6bf
000000f0: eb36 4dac 6473 f63f 2434 1328 9433 fdbf
00000100: d01f 1f21 017f 02c0 a475 956a b0ca eb3f
00000110: afea ce8d 401b fc3f e544 f5e8 ab9e fdbf
00000120: f374 3808 c6c4 f5bf 5eb7 4fd1 525c ff3f
00000130: b815 b088 88ac f2bf 426e a6c7 1510 f53f
00000140: 68d0 97e0 b7a4 ecbf 3eb0 d4ab a52c fabf
00000150: e27f 82e3 3de4 0240 777c 2d68 26d4 f0bf
00000160: da6d 144e 70ca d9bf 549b 71e5 a733 fabf
00000170: adc9 9e0b 1985 f73f 846f 485f 49ce b83f
00000180: 918a 805b 2300 f5bf 45c8 b8aa 38fb f9bf
00000190: 20b6 2f2f 4a4f f13f 5f8e b1cf b731 f13f
000001a0: 50b8 df61 bca5 cdbf 35a2 07ca dc23 f23f
000001b0: 21ae 187a d47f cabf f66f 4cd3 f8ec fabf
000001c0: a78a 3c56 7af8 0d40 dac6 dbb8 24fe 00c0
000001d0: bce5 d6bb 3c2e d3bf b292 767e 5073 0140
000001e0: 4e94 2419 bbf5 05c0 20d0 f5c6 5ec9 ff3f
000001f0: f522 ca85 d20a 03c0 ca40 f776 bf37 f7bf
00000200: 1381 1c39 b2f6 ea3f 5a79 02e7 5587 00c0
00000210: 73f0 479b 842e 0140 4380 44c1 ff8e ffbf
00000220: 09a3 0d39 1278 00c0 e77c 7137 0486 0040
00000230: efe4 f551 cba7 f6bf c75c 0552 c91d 01c0
00000240: ae89 888c 3322 f2bf 0d7b ded2 75e4 03c0
00000250: 5c33 3bba dd33 ff3f 5c74 0307 fb42 febf
00000260: 26c8 fa2b f15d a6bf 6a83 f151 4626 0e40
00000270: 8432 d83b a6e3 01c0 3659 cb43 a020 ef3f
00000280: aedf 132f ef46 04c0 894c 7a21 d88f 01c0
00000290: 98d3 0a67 99e8 ee3f a530 ea22 caac 05c0
000002a0: bbe0 c072 99a1 ea3f 72f8 7039 d609 e8bf
000002b0: e807 e29e 3601 f4bf efd6 06b7 bbc0 1040
000002c0: 4181 1f59 4e86 eebf c7cd 5ae2 c0f6 f2bf
