data/iris/rbm_weights.npz (npz, 1612 bytes, 3 tensors)

a f8 [15]
00000000: e3c9 0277 0689 f1bf fbd6 6cef bb8c fabf
00000010: 3524 2da0 cdae f5bf d317 ccef 0166 f2bf
00000020: e3f1 2a3c 3085 ecbf 2071 5dda 97b5 debf
00000030: 3151 e07e 0e4f 02c0 8eab 6449 0f15 f03f
00000040: 0905 116f c409 01c0 73ea 1905 3f3c e3bf
00000050: 15a2 84e1 edcd e8bf 2c72 f43d c590 edbf
00000060: c98d 41d2 087f f2bf 68b7 3502 f274 cebf
00000070: cbcf 3521 b065 00c0
-1.0959534310210237 -1.6593589165253764 -1.3551765686882054 -1.1499041907386427 -0.8912583518172678 -0.47983356785495523 -2.288601866932503 1.0051415316508812
-2.129769199091815 -0.6011042689927549 -0.7751378445291858 -0.9239221773200987 -1.156014272034428 -0.23794388873960348 -2.049652347044661

b f8 [6]
00000000: 2842 22dc 036c b83f 5e4d 091b d0a9 fb3f
00000010: 2e9a 5938 15ea e53f 4174 13a1 4726 02c0
00000020: 9dab ed31 5ac8 a9bf f968 4d56 d405 e83f
0.09539817928658378 1.7289582306010156 0.6848245716653929 -2.268691309362595 -0.05035669192769563 0.7507116017907541

J f8 [15, 6]
00000000: 2e29 77cc f121 f73f 5509 8284 0bad b53f
00000010: 3f1a 7a0a 1b99 0cc0 e8d9 7e5f e153 f13f
00000020: bb29 d202 d030 03c0 e89b 415a 906f 0240
00000030: c004 28c8 f99b fabf 35f6 a6b0 118d f53f
00000040: 9aca 3401 1bb1 0b40 f9a8 cf9a 73c3 fdbf
00000050: 9a6c b467 0913 0ec0 6902 9bdf 298d d3bf
00000060: 7cab a3f5 a9d3 df3f 2ed5 b8cd d881 f4bf
00000070: 79b2 3000 5afb ebbf bcc7 ee21 2783 e6bf
00000080: 9da3 60d5 03e7 1240 99bd d5e7 a16b 01c0
00000090: 024b 8500 5304 da3f 8638 21f1 8a34 d63f
000000a0: 7332 0a0d 469c f1bf 9af0 f3ef b259 f23f
000000b0: 6626 7851 1063 fabf c415 1a6c d1e1 fc3f
000000c0: 50a5 33e8 6654 e4bf 2dd9 d565 2ad5 f43f
000000d0: 45a5 0946 78c2 b5bf 28af 8082 d935 e73f
000000e0: 77a8 c056 d304 e7bf 0665 cb0c d0b9 03c0
000000f0: 6c81 43f3 dcd4 bcbf fee6 f09c b7a2 00c0
00000100: 3238 0679 bdcc f43f 611c 31db 1313 f5bf
00000110: 66d1 b4cd 6cfa f63f cdd0 74be 2be5 f2bf
00000120: 5615 bc13 3184 f83f 2e5d f0f4 ec75 0040
00000130: 8e6c 6fe1 a052 f33f 010d 0e7e 4c31 f0bf
00000140: 3f5d 27dd a554 c0bf 7281 6195 c34a 05c0
00000150: ec89 7174 137f 0bc0 dc5b b375 6dea f7bf
00000160: 9afb 40d5 4e99 e4bf ea3f e908 9a97 b83f
00000170: 128a 6131 28bd ed3f 9383 1a45 a596 0040
00000180: bae7 7dd9 f791 0240 eabf 48a7 b5f9 d4bf
00000190: f6ea 037e 5d6f eabf 6f33 5ca8 e9cf e63f
000001a0: d2a5 c2ad 51a5 d7bf d2cf cc03 6fa2 72bf
000001b0: a902 138c 4b44 f93f 3e5a de4a 6a70 edbf
000001c0: ab98 449b fc8d 06c0 d072 cc1e c868 ff3f
000001d0: c58f a85a 73dd 05c0 7e51 5151 4cba fe3f
000001e0: c225 161f 9740 01c0 081f f58f 2bcb 0040
000001f0: fb4e 3e41 a86f f43f a11c 538a 540b fbbf
00000200: 5d40 d89a 44a3 07c0 fe41 2c51 40fc f5bf
00000210: 2dc5 5296 6025 d83f 09f7 88f2 2c70 01c0
00000220: de98 0a59 d04a e23f 9ef5 5f14 d2d9 f3bf
00000230: f01d 82c3 9903 0f40 8aed dd03 ad1a f7bf
00000240: fe85 2220 177e e93f 90d2 7f62 925e db3f
00000250: 8e95 1aea e860 0dc0 e60e d937 7f0f 0040
00000260: d94d da65 3ca8 02c0 4296 078a 1c4f 0140
00000270: 4255 6388 3f0b eebf b44e 595c 628c f13f
00000280: 10f9 d766 4189 0340 d88d 6f5c fa1a 00c0
00000290: 3bf7 ca13 7609 0ec0 453c 578f 9d88 f7bf
000002a0: 42ba 22f3 cf89 d0bf 0db0 6bc7 fb1e f5bf
000002b0: 3000 5ceb fd2f 87bf ee11 9dad 248b b83f
000002c0: fca1 b689 f4ef 1140 4788 7545 a058 fbbf
1.4457872378284935 0.08467170701081746 -3.574758607722543 1.0829786043446976 -2.398834249533335 2.304474549414852 -1.6630800074201915 1.3469406986690846
3.461477288650099 -1.8602176711379441 -3.759295282548533 -0.30549094044184827 0.49729393947807643 -1.2817009006515252 -0.8744325641360567 -0.7035098707913146
4.725600561164268 -2.1775549041846713 0.40651392985198254 0.34695695445851304 -1.1006527432793092 1.1468991635474937 -1.6491854841609892 1.8051313612680682
-0.6353029761495836 1.3020423868125122 -0.08499862394241571 0.7253234433060003 -0.7193390554796356 -2.465728855092155 -0.11262303294234294 -2.079451776601558
1.2999853827964327 -1.317157608240244 1.4361389193919307 -1.1809499206256533 1.5322733660589924 2.057580865464522 1.2076729589523754 -1.0120358394640905
-0.12758324907802351 -2.661505858457695 -3.4370488259457854 -1.4947332952194676 -0.6437143483270689 0.0960632583385174 0.9293404545281325 2.073557414886133
2.3212735168026173 -0.3277410634645991 -0.8260943852650076 0.7128799713405963 -0.36946527451308697 -0.00454944005177889 1.5791736098910099 -0.919972559192338
-2.819329464941878 1.9630814745971072 -2.7331301768008154 1.9204829384298985 -2.15653824125613 2.0992041823082026 1.277260069710734 -1.6902661708170756
-2.954720697140188 -1.3740847750487997 0.37728132896434624 -2.179773230366554 0.5716325511064289 -1.240678863133645 3.876758124740938 -1.444012656312085
0.7966418864854743 0.4276472055346767 -3.672319249092374 2.007566868125525 -2.3321464497800943 2.1636286529126503 -0.9388730682209501 1.0967734916093095
2.4420192751559924 -2.013172838358269 -3.754619745856784 -1.470853385853631 -0.2584113954898478 -1.3200643339032496 -0.011322005982492639 0.09587315786945513
4.484331275722521 -1.7091372216459761
